bert-bbc-lora/adapter_model.safetensors (safetensors, 313828 bytes, 26 tensors)

base_model.model.bert.encoder.layer.0.attention.self.query.lora_A.weight f4 [4, 768]
00000000: 5f19 e9bc 7d0b 913d 76bb 363d 1316 bb3c
00000010: 0a6c f63b 8421 853b 048b 103d 4c27 9a3d
00000020: 5ee9 db3c f7eb e3ba d2b7 a63d 470a 193d
00000030: 9cb6 85bd aed7 0b3b f5e9 643c 81ff 70ba
00000040: bc4f e43c 6647 ed3b 8445 e53c 44eb 93bb
00000050: c5e4 463d 5fd1 66bc 1991 b03b 37bc cf3c
00000060: c109 b2bc 2b24 203d 77a9 5c3c 2e42 73bd
00000070: 6d7d 48bd cbf5 c53b 78b6 943d d691 d93c
00000080: 386b 1b3d 79c4 1bbc 6ff2 b2bb c7d9 283d
00000090: 7dc0 0c3a 436e 0e3d fabb 133d b141 a8bd
000000a0: 76d8 e2ba 39f5 09bd 60a7 0cbd d9f2 8c3c
000000b0: f768 99bd 3d25 33bc fbcb 59bc c5fb 17bd
000000c0: b2af 55bd 12d1 d33c b2a6 873c 210f 9ebc
000000d0: 6f41 b83c 8e37 c53c c67f b3bc d241 5dbc
000000e0: e5e8 823c 2d51 883c bf0b 94bd 7837 10bd
000000f0: f23e 2ebd 9c11 60ba 9e24 6cba 01fe 7dbd
00000100: 9a62 13bd 2554 b7bc 09b4 adbd 796c 38bb
00000110: a9db 063d 38ec 5dbd 4835 dbbc 4b7b 8f3d
00000120: cfce 91bd 3151 ac3c c646 803d 6fa3 c63c
00000130: b986 4cbb 04fa 23bd 50fc f4bc b36a 8abc
00000140: a646 8e3c 1ba0 843d 0c23 ff3c 4442 833c
00000150: e4d5 fabc 65eb bd3c 1ec2 453c 5e4c adbb
00000160: 095a a8bc 7874 a1bc 8f01 713d 5905 93bd
00000170: 829a 2d3b 7840 41bd 668c 523d acd1 89bd
00000180: 4574 b4bd 0863 6b3c 3608 dd3c d366 223d
00000190: 26d8 fb38 15b3 f9bc 9804 eebc b794 973d
000001a0: 1c0e 0c3c 409e 30bd b1e7 2eb9 cc96 88bd
000001b0: ef18 3c3d b833 14bd 4e59 17bc 43c7 143d
000001c0: e4f2 d8bd 05cb 493d 66b7 003d 3605 023d
000001d0: 6a7a 903d 527a 8a3c d04f bebc 2eef 36bc
000001e0: 3846 a8bc 448e cc3c f94f 24bc 9eac 343d
000001f0: c532 50bd ecd8 533d f3e4 3d3c 3ce1 993b
00000200: d95f 17bd 0a3b 703d 18a2 7a3d 047d 6b3c
00000210: 55c8 39bd f1a4 3c3c bbf0 353d 94a5 393d
00000220: e9b9 03bd 78bb 99bc 9835 213c b2af dbbc
00000230: ee9b a3bc cd24 a0bc d092 95bc 32e3 77bc
00000240: f1fe 30bd 204f 7bbc 9d62 88bd f19f 213c
00000250: 8dac 53bc 650c 693d d074 0b3d 3411 833c
00000260: 5f4c 4ebd 642c f3bc fd2d 05bb 0504 fd3c
00000270: 44c4 6bbc d728 c83c 798d f73c 3272 663d
00000280: 5d67 cfbc 7b38 11bc e30f a0bd 2463 8f3d
00000290: 3bff 073d 440c 83bd 747c abbd 5d13 52bd
000002a0: 647c 94bd afec d53c 4d64 8ebc 7243 1e3d
000002b0: 8ced 523c 7bf9 783d 946d 8bbc 35e4 34bd
000002c0: a42a 98ba 8c2b a6bc bfc6 8dbc f01e 483c
000002d0: ed31 92bb dd8c fabc 2a28 293d 6f28 0fbd
000002e0: de01 d9bc 8c60 1c3d 867e 3f3a 6431 1e3d
000002f0: 3417 293d 357d 67bd 47b6 cabc caa1 3b3d
00000300: 4569 443d 4cf0 933c 1626 ad3c fb6b cebc
00000310: a167 103d d6f0 ae3d 8f8b 893a 9be3 463b
00000320: 3172 64bd 73fe 1dbc 037f 9abc 9d66 b23c
00000330: 9bf6 f2bc 99d4 1ebd 4f61 493d eb5f 15bd
00000340: 53e6 303b 3c64 0e3c e234 a9bd cd21 843d
00000350: 40fd 7dbd 22e3 40bc 21ad 4c3d 5776 cfbc
00000360: 53b0 73bd a7d7 413d b64d aa3a 4494 523c
00000370: ea06 053d dcd4 eb3c 9a6e 5dbc b75f 83bc
00000380: 25af ad3c 82f4 83bc 95af c2bd 4a6a 463c
00000390: 17c9 773c b3dd 9f3c fb0f 84bd c081 4e3d
000003a0: 7696 6f3c 0d9a cdbd e47b b33d 66b6 6abd
000003b0: d2c8 ddbb 0d3c ebbc 7b8c d03b e456 6f3b
000003c0: ed19 853d 22dc 3e3c c291 8f3b 5d37 e8bc
000003d0: 7ec5 1fbd 907c 86bc 646b 79bd 1c10 ae3d
000003e0: f253 57bc f5c3 fc3c 52d8 e73b a23b 483d
000003f0: 2e08 67bd 3804 04bd 23e0 963c 79bf efbb
-0.02845448 0.07082269 0.04461237 0.022837674 0.0075202035 0.0040628333 0.035288826 0.075270265
0.026844677 -0.0017389049 0.0814053 0.037363317 -0.065289706 0.0021338272 0.013971795 -0.00091933465
0.027870052 0.0072411774 0.02798725 -0.00451413 0.048558015 -0.014088004 0.0053883907 0.025358303
-0.021733167 0.039096992 0.013468138 -0.059389286 -0.04894774 0.0060412637 0.07261366 0.026558798
0.03794405 -0.009507292 -0.0054610292 0.041223314 0.0005369259 0.034773123 0.03606794 -0.08215655
-0.0017306942 -0.03368113 -0.03433931 0.017205643 -0.074907236 -0.010934171 -0.013293262 -0.03710534
-0.05216951 0.025856528 0.016558979 -0.019294323 0.022492139 0.024074342 -0.021911513 -0.013504462
0.015980193 0.01664027 -0.07228803 -0.03520915 -0.042540498 -0.0008547546 -0.0009008142 -0.062009815
-0.035982706 -0.02237899 -0.084816046 -0.0028140827 0.032924328 -0.054180354 -0.026758805 0.07005938
-0.07119524 0.021034809 0.06263499 0.024247853 -0.003120823 -0.040033355 -0.029905468 -0.016896581
0.017367672 0.0647585 0.031144641 0.016022809 -0.03061957 0.023183534 0.012070207 -0.0052886447
-0.020550745 -0.019708857 0.058839377 -0.07178754 0.00264898 -0.047180623 0.051403426 -0.06729445
-0.08811239 0.014366873 0.026981454 0.039648842 0.000120088735 -0.0304809 -0.029054925 0.07401412
0.008548286 -0.04311967 -0.00016680245 -0.06669387 0.045922216 -0.036182135 -0.0092376005 0.036322843
-0.10593203 0.04926588 0.031424902 0.03174325 0.07054599 0.01690403 -0.023231417 -0.011165423
-0.020541295 0.024970181 -0.010028833 0.044109933 -0.050829668 0.051720545 0.01159023 0.0046960395
-0.03695664 0.058650054 0.06118974 0.014373068 -0.045357067 0.0115139345 0.04441903 0.045323923
-0.03215972 -0.01876615 0.009839438 -0.026817176 -0.019971814 -0.019548798 -0.018258482 -0.015129851
-0.04321188 -0.015338689 -0.06659434 0.009864793 -0.012919557 0.056896586 0.034046948 0.015999414
-0.050365802 -0.029684253 -0.00203216 0.030885706 -0.014390055 0.024433536 0.030218827 0.05626125
-0.025317842 -0.008863564 -0.0781553 0.070013314 0.03320239 -0.06398824 -0.08373347 -0.051287998
-0.07250288 0.026113836 -0.017381812 0.03863854 0.012874018 0.060784798 -0.017020024 -0.044162948
-0.0011609388 -0.020284437 -0.017306684 0.012214407 -0.004461518 -0.030584747 0.04129807 -0.03495067
-0.026490148 0.03817801 0.0007304925 0.03862132 0.041281894 -0.05651589 -0.02474512 0.04580859
0.047951955 0.018058918 0.021136325 -0.025197973 0.03525508 0.085420296 0.0010493862 0.0030348066
-0.055772964 -0.009643185 -0.018859392 0.021777445 -0.029658606 -0.038776968 0.049165066 -0.036468428
0.0026992753 0.00869089 -0.0826204 0.064517595 -0.062009096 -0.011772903 0.049969796 -0.025324984
-0.059494328 0.047324803 0.001299313 0.012852732 0.032477297 0.028788023 -0.013515139 -0.016036851
0.02120168 -0.016107801 -0.09506146 0.012110302 0.015123627 0.019514894 -0.064483605 0.050416708
0.014623275 -0.100391485 0.08763865 -0.057302855 -0.0067683244 -0.028715158 0.006364403 0.0036520297
0.064990856 0.011649163 0.0043813894 -0.028346712 -0.039006703 -0.016416818 -0.06089343 0.08499166
-0.013142573 0.030855158 0.007075348 0.048884995 -0.056404285 -0.032230586 0.018417424 -0.0073165265

base_model.model.bert.encoder.layer.0.attention.self.query.lora_B.weight f4 [768, 4]
00000000: d154 4cbc 4ec4 3fbd 04d8 b63d 6f14 90bd
00000010: eeee 343c 2bc7 77bc 0f88 53bc bac6 51bc
00000020: 7535 b6bc 2e8a 4abd a95e f9bc d5c8 8a3d
00000030: 9051 29bb b151 053c c8a9 20bb 05f0 583c
00000040: 3d1f c3bc c758 a5bc 81ee 593d 61e3 a0bd
00000050: 970d 2bbd 06a2 b8bc 6caf 6abd 92e8 ab3d
00000060: 4cb4 de3a 28f1 f4ba f012 2dbd e7cc 2a3d
00000070: 662d 8fbc 4943 77bb fff1 903d 6408 66bd
00000080: 67e8 f1bc 789f c0bc 1247 efbb ef31 263d
00000090: 754a 77bc 30c4 8fbd 2a28 9cbb 20cc 9b3d
000000a0: f7e0 ae3b 8818 35bc 201c c43d 4c50 6bbd
000000b0: ff12 843b d984 bbbc 1c4f afbc 007e 6f3d
000000c0: 3034 02bc 0664 d8ba 26f4 06bd b864 273c
000000d0: df2f d93c cd2b a03d 681a 983d eee0 8bbd
000000e0: fd7c 41bc 3f71 4b3c 939b c8bc fb91 b63c
000000f0: 5e04 3d3c ab47 45bc 1a74 033b 369b 25bc
00000100: 25d6 0cbd 3e24 7fbc 6ff0 ab3d 0549 90bd
00000110: 38ed 0f3d aa67 4f3d 394c c5bd be40 2a3c
00000120: c30f 833c 83e8 8d3c f0ab 6b3d daff 01bd
00000130: e793 62bb 3f43 9ebc c438 9abc 0a99 993c
00000140: de3f b43c afad 963c d3a2 533c 601b 84bd
00000150: 162d dc3c 0d48 943c 2887 5e3d a6d9 4fbd
00000160: cfb2 a6bc bb4e d93a 9d4e 19bd 92e9 4f3d
00000170: e81f df3c d485 77bc 8468 b0bb 84f0 bcbc
00000180: 4f8b b5bc 4588 d0bc 970e 833d 1fd7 3abd
00000190: 6f58 bd3c 57f7 1abd f307 d53d 69b0 a1bb
000001a0: ccf5 33bd 2fbe 2abd 1388 183c f22a a23c
000001b0: 68cc fbbc fd08 38bd 2cc7 44bd ae5f 0b3d
000001c0: 97cc a5bc b54e d4bb d4ac 703d 9553 91bd
000001d0: 7269 9fbc 29b4 c9bc fa6c 3bbd e972 013d
000001e0: f47c 0d3d 19bc 243d ce53 cf3c 9a10 a9bd
000001f0: f3d1 153d c26c 403d 5a5d 96bd 581a 03bd
00000200: 3368 9abc 2d3f 65bc 7b8b fc3b c4c8 803c
00000210: a70b 99bb b848 373c d5d6 14bd f815 113d
00000220: fe8b a03c e47e f53c 8748 a4bd b2f8 b03c
00000230: db52 f3bc b678 eebc 6cf3 9e3d 3b2a dfbc
00000240: 6230 c83c a905 b83c 8777 273d df19 6abd
00000250: e622 7c3d 631b 963d e18c debd 26a0 043d
00000260: 13cb 2dbd 3324 e8bc b954 8dbd 59d4 d43c
00000270: 6631 f8bb f90f a4bc 61b1 d53b 8a85 563d
00000280: 8077 fabb e228 ae3c 24ba 873b 3162 b53c
00000290: e817 043c 7a5e e53b 37ab 773d 5b29 86bd
000002a0: 8fcf 1c3c 5d30 0c3c 4696 7b3d d7ee 91bd
000002b0: 288d 8bbb 4134 c6bb 3b86 78bd bd35 183d
000002c0: 299a 3ebd 0e1c 63bc 9ad5 ee3c 04b3 053d
000002d0: acf3 003d d702 323d 4048 9ebd bac2 403d
000002e0: 10af 11bd 7686 2b3b 037a 9d3c 81ec 90bc
000002f0: e83e b9bb 8abd 4c3c 3a33 963d 774f b6bd
00000300: 05b3 f5bc ccf6 d8bc 5acb a83d 88ab 1bbd
00000310: 133a 393d 39e6 aa3c 6842 443d b57a 6dbd
00000320: 0015 d0bc 29a0 1abd 088e 983d bedf 07bc
00000330: c296 37ba 1069 093c 152b 4f3d eea2 7dbd
00000340: 749f 96bc f9b6 5abc f1b4 413d 8efc 16bd
00000350: e2a3 bebb 67d2 793c 873a 6f3d 1c38 91bd
00000360: fb1f 13bc 2677 d93c c2ef 05bd 545e 31bb
00000370: 9a2e 063d 4289 d13c 9130 bd3c a839 5ebd
00000380: 0146 a6bc 484e 92bc 520f 163d f770 773c
00000390: c630 2ebc 91f0 293c 70ac 9abd 2eb3 393d
000003a0: 157a 2f3c 5bcb 8dbb c1e0 cabd 3b69 b9b9
000003b0: d2b6 86bc 4534 eaba 0346 99bc 9828 563d
000003c0: 4917 e2bb db8d 413b 624b 85bc 79e4 86bc
000003d0: 6ff9 96bc 8a75 28bd 3891 72bd fa00 ac3d
000003e0: ea0d 353d 9f15 b33d 766c 8a3c 662b a3bd
000003f0: 8c21 333d 52d9 e73c e7b2 6bbd 7c00 f43c
-0.012471394 -0.04681807 0.089279205 -0.070351474 0.011043293 -0.015123169 -0.012910857 -0.012803728
-0.022242287 -0.049448185 -0.030440645 0.06776587 -0.0025835969 0.0081371525 -0.002451526 0.013240819
-0.023818607 -0.020183934 0.05320597 -0.07855869 -0.041761007 -0.022538196 -0.0572962 0.08393969
0.0016990989 -0.0018687593 -0.04225439 0.041699316 -0.017477702 -0.0037729314 0.07077407 -0.056160346
-0.029529763 -0.02351354 -0.0073021734 0.040574964 -0.0150934355 -0.07019842 -0.00476553 0.07607293
0.0053368765 -0.011053212 0.09575677 -0.057449624 0.004030585 -0.022890495 -0.021400027 0.058469772
-0.007947013 -0.0016509301 -0.03294768 0.010216884 0.026512085 0.07820854 0.074269116 -0.06830011
-0.011809585 0.012417137 -0.024488246 0.022286406 0.011536686 -0.012041013 0.0020058216 -0.010107806
-0.03438391 -0.015572606 0.083954684 -0.07045177 0.03513834 0.05063597 -0.09633679 0.010391412
0.015998727 0.017322784 0.05753702 -0.03173814 -0.003457302 -0.019319175 -0.018825896 0.018749733
0.02200311 0.018393366 0.012917238 -0.06450534 0.026876967 0.018100763 0.054328114 -0.050744675
-0.020348934 0.001657925 -0.037428487 0.05075986 0.027236894 -0.015107591 -0.005383553 -0.023063906
-0.022161154 -0.025455603 0.06399267 -0.04561531 0.023113457 -0.037833538 0.10401907 -0.00493436
-0.043935582 -0.04168528 0.009309786 0.019795869 -0.030737117 -0.044930447 -0.048041508 0.034026794
-0.020239158 -0.006479109 0.05875857 -0.0709602 -0.01945946 -0.02462204 -0.045758225 0.031603727
0.034542993 0.040218446 0.025308516 -0.082551196 0.036577176 0.04697872 -0.07342024 -0.032007545
-0.018848514 -0.013992113 0.007707057 0.015720733 -0.0046705785 0.011186771 -0.036337692 0.03542134
0.019598003 0.029967733 -0.08021646 0.021602962 -0.029702595 -0.029110294 0.07761273 -0.027241817
0.024437133 0.022463636 0.040885475 -0.05715358 0.06155672 0.07329442 -0.10866714 0.032379292
-0.042429995 -0.028337574 -0.06900925 0.025980162 -0.007574248 -0.020027148 0.0065213894 0.052373447
-0.00764364 0.021259729 0.0041420627 0.022141548 0.00806234 0.006999788 0.060466018 -0.06550857
0.00957097 0.008556453 0.06142261 -0.07125633 -0.0042587705 -0.0060487096 -0.060674887 0.037160624
-0.046533737 -0.013861669 0.029154588 0.032641426 0.031482384 0.04345974 -0.07728624 0.047060706
-0.035567343 0.0026172674 0.019223219 -0.017690899 -0.005653251 0.0124963615 0.073339894 -0.089018755
-0.02999259 -0.02648487 0.08241911 -0.03800538 0.0452214 0.020861732 0.047914892 -0.05797835
-0.025400639 -0.037750397 0.07448965 -0.00829309 -0.00070033607 0.008386865 0.050578196 -0.06192296
-0.01838658 -0.013349288 0.0472917 -0.03686195 -0.005817876 0.015247918 0.058405425 -0.0709078
-0.008979793 0.026546072 -0.032699354 -0.002706428 0.032759286 0.025578145 0.023094447 -0.054254204
-0.020297052 -0.017859593 0.036635704 0.0151026165 -0.010631746 0.010372297 -0.07552421 0.045336895
0.010710259 -0.0043272204 -0.0990615 -0.00035364353 -0.016444597 -0.0017868361 -0.018710142 0.052284807
-0.0068997485 0.0029534015 -0.016271297 -0.016466366 -0.018429486 -0.04112772 -0.059220523 0.08398624
0.044202723 0.08744358 0.016897421 -0.07967262 0.043733165 0.028301869 -0.05754366 0.029785387

base_model.model.bert.encoder.layer.1.attention.self.query.lora_A.weight f4 [4, 768]
00000000: 7561 6a3c 163f cb3c 1a92 9f3d 4fc3 b13d
00000010: 40b5 b2bc 8e14 aa3a d1bb 1e3d aedd ae3b
00000020: 9966 30bc c4c7 143d 8bf3 c5ba 8d72 a83d
00000030: b85f 963c e552 75bc d513 daba f753 b93d
00000040: 1d19 143d b7dc 68bd 3c54 07bd 6357 44bc
00000050: 0d4d 5fbd 9388 1d3d 9744 48bb 4336 bdbc
00000060: 9c32 33bc c689 98bc 1844 a0bc fed1 2bbd
00000070: 57d4 26bd 719c 55bc 0142 31bd 18a8 95bc
00000080: ad37 a6bc 779d aebc 2cba d93d 46f5 8c3d
00000090: 9dd2 5dbd 48a1 51bd ddbd a23c 482a 11bc
000000a0: 3667 2e3b 69e2 703b a34b 483d 1cf4 ce3d
000000b0: 9074 05bd 23bc e93c abc2 0abc d502 17bd
000000c0: 5ec2 7bbc a452 1c3d 2c6b 8bbd e375 c63c
000000d0: 9d47 933d 97a1 2cbd 4316 a93c 013a ccbc
000000e0: 2a62 43bc bd12 38bd dac9 b8bc a8a5 853d
000000f0: 1243 f5bc 9d95 153c 2ba6 74bc 7674 6f3d
00000100: 64b4 0a3d 8612 06bc 0335 8dbd ad10 debc
00000110: d162 04bd c5df 91bb 5667 cebc 7918 03bd
00000120: 9945 adbc f956 4f3c 8b57 32bd 8d10 48bb
00000130: 1607 403d ef12 c4bc ad9a 573d 1654 14bd
00000140: 8c4c 4cbc 4743 95bc 7380 803c ed4d 15bd
00000150: 8b76 babb 244f 263d 6d7a 9ebc 992b 98bd
00000160: ddbb 20bd 41e7 1b3d 4b55 2dbc 778b 52bc
00000170: 52b1 26bd 5204 d3bc 4956 453d 62a7 433d
00000180: 3a16 03bb 93f3 d53c 9737 25bd cfcd 713d
00000190: 5049 213c 3dc0 86bd 2aa0 803c b483 a73c
000001a0: b272 55bc 4e85 523c d1b8 6dbd b47d 8b3c
000001b0: 8239 12bd 75d3 14bd 1944 04ba d171 863c
000001c0: 60ae 11bd eeff 4cbc 9c22 c1bc 263a 513d
000001d0: ddd5 f1bb abf4 b83d 0a1d 993d 0f61 8fbc
000001e0: 9a6b fc3c 7af4 22bd 1a7c 10bd b7f3 84bc
000001f0: 00e5 213b addc 20bd 296c 51bc 6d6d 8ebb
00000200: a8d1 6f3d 5064 8a3d ed22 803d 99ee f63c
00000210: 2b7d a5bc a1e1 c4bc 27ba 4b3c 9922 4d3d
00000220: 1798 2ebc 4342 0fbd 1367 c6bc 3e39 183c
00000230: f187 183c 1ee5 283c 4d38 d73c eca9 963b
00000240: 54ac 25bc 1a65 8d3c a694 163d d6b8 f5bc
00000250: 940d 313c cef2 37bb 9a5f 2c3d d458 bdbd
00000260: ec48 063c 1a2d 22bd 0772 1bbc a52c 02bc
00000270: 696d 01be b0d6 613d 93b9 b9b9 dbbc 2f3d
00000280: 9ce3 90bd 7632 e1bc 2836 f23c fd59 363c
00000290: bc10 4b3c 093e 083d ae67 493d 8f5b 9bbd
000002a0: e958 37bd 621f d13d 95ce 15bd 6a30 db3c
000002b0: 5fe3 21bd 525a 993d c915 74bd 8845 ffbc
000002c0: 6a42 f8bc 212f 013d ed12 973c 583a 973d
000002d0: 52d8 2b3d 0718 84bd 0b9a f3bc 44d8 163d
000002e0: 7eb8 483d f3fe 6b3d e13c 4c3d f2df b53c
000002f0: e0be 983d 656f 27bd f62a a93c 1f37 5a3d
00000300: 5eb7 263c b3c4 03bd d8b8 a2bc aa8f edbb
00000310: 90a5 2abc 8f76 9c3c c876 893d 6014 7f3d
00000320: fc40 75bd 70bf 7fbd c6b2 fabb 66b2 163d
00000330: 0743 b03d 5e23 993c cba2 e8bc 54a1 f1bc
00000340: 7a10 f93b e557 8dbd 845d 58bd e85a 453a
00000350: 0960 95bd a20f 1f3d 3be4 5d3d b91b fd3a
00000360: 64ca 163d c4ae 963c 0b6c 29bc 685e 77bc
00000370: ea16 c83c 43b7 66bd d92b ef3c 0632 803c
00000380: 4949 07bd 3775 7abd 6aed 32bc 18cf 1bbd
00000390: 5a7f 553d 060e 69bd f31d 3cbc 2a21 cabc
000003a0: 040b 5f3d 730b 70bc 6cc1 c0bd 23d8 623d
000003b0: 61c7 273d 104a 633d 6c0c a23c e567 d03c
000003c0: 8ee2 5fbb 5776 1c3d b0a0 9e3d 8663 c9bc
000003d0: 76ae 9c3c 4c35 003d 804b 6b3d 964b e33d
000003e0: 399a adbc 5475 0bbd 37d0 473d 42e4 b43c
000003f0: 9ebb 8a3d 4f1d 68bd a3aa 113d 1cfc d33c
0.014305462 0.024810355 0.077915385 0.0867983 -0.021814942 0.0012976096 0.038753334 0.005336485
-0.010766649 0.036323324 -0.0015102489 0.08224974 0.01835619 -0.014973377 -0.001663799 0.09049218
0.036156762 -0.056851115 -0.033039317 -0.011983725 -0.05451684 0.038460325 -0.003055846 -0.023097163
-0.010937359 -0.018620383 -0.01956372 -0.04194831 -0.040729847 -0.013037787 -0.043275837 -0.01826863
-0.02029022 -0.02131532 0.106312126 0.0688272 -0.054155935 -0.0511792 0.019865924 -0.008860178
0.0026611811 0.0036756045 0.048900258 0.10105154 -0.032581866 0.028532093 -0.008469264 -0.036867935
-0.015366165 0.03816475 -0.06807551 0.024226135 0.071913935 -0.04214629 0.020640498 -0.024930002
-0.01192526 -0.044939745 -0.022557188 0.06525737 -0.029939208 0.009129909 -0.014932196 0.058460675
0.03386344 -0.008183127 -0.06894877 -0.027107561 -0.0323208 -0.0044517242 -0.025195759 -0.03200576
-0.02115135 0.012655013 -0.04354052 -0.0030527443 0.046881758 -0.02393481 0.052637745 -0.036213003
-0.012469422 -0.018220557 0.01568625 -0.03645127 -0.005690401 0.040602818 -0.019345487 -0.074301906
-0.03924166 0.038062338 -0.010579417 -0.012850634 -0.04069645 -0.025758896 0.04817799 0.04776705
-0.0020002262 0.026117122 -0.040336218 0.059034165 0.009844139 -0.06579635 0.015701372 0.020448543
-0.013027834 0.012849165 -0.058037583 0.017027713 -0.035699375 -0.036334474 -0.0005045548 0.016411694
-0.035566688 -0.01251219 -0.023576073 0.051080845 -0.007380231 0.09031042 0.07476242 -0.017502336
0.030813027 -0.039783932 -0.035274602 -0.016229494 0.0024703145 -0.039272953 -0.012782135 -0.0043465407
0.058549553 0.06757414 0.062566616 0.03014307 -0.020201286 -0.02403337 0.012434519 0.050081823
-0.010656378 -0.0349753 -0.024219071 0.009290991 0.009309755 0.010308532 0.026271963 0.004597893
-0.010111887 0.017260123 0.036762856 -0.029995363 0.01080646 -0.0028068307 0.04208336 -0.09245458
0.008196097 -0.039593793 -0.009487635 -0.007945214 -0.12639393 0.055136383 -0.00035424213 0.042904716
-0.07074663 -0.027489882 0.02956684 0.011129853 0.0123941265 0.033262286 0.049171142 -0.07585823
-0.044762526 0.10211064 -0.036573965 0.026756484 -0.03952348 0.0748793 -0.05959109 -0.031161085
-0.030305106 0.031539086 0.018441642 0.07384175 0.041954346 -0.06449895 -0.02973654 0.03682734
0.04900407 0.057616185 0.049862746 0.022201512 0.074582815 -0.04087772 0.020650368 0.053275224
0.010175554 -0.03217001 -0.019863531 -0.007249792 -0.01041545 0.019099502 0.06712109 0.06227529
-0.059876427 -0.06243843 -0.007650706 0.036791228 0.086065345 0.018693622 -0.028397938 -0.029495873
0.007600841 -0.0690153 -0.05282356 0.00075284997 -0.07293708 0.038833268 0.054172736 0.001931063
0.03681411 0.018393882 -0.010340701 -0.015098192 0.024424989 -0.056327116 0.029195713 0.015648853
-0.033028875 -0.06114694 -0.010920862 -0.038039297 0.052123405 -0.05689814 -0.01148175 -0.024674017
0.054453865 -0.014651167 -0.09411892 0.055381905 0.040961627 0.055490553 0.019781314 0.025440166
-0.0034162137 0.038198795 0.077454925 -0.02458359 0.019126158 0.031300828 0.05744505 0.11098401
-0.021191703 -0.03404744 0.048782554 0.022081498 0.067740664 -0.056668576 0.035563122 0.025877051

base_model.model.bert.encoder.layer.1.attention.self.query.lora_B.weight f4 [768, 4]
00000000: 99d6 773d ef97 4ebc 4263 953d 7773 593c
00000010: 65db 99bd f455 abbc c35f e0bb 959f 78bb
00000020: dc90 953d 7bbc 8e3c 97e1 203d aecc 57bc
00000030: 8365 ee3b 5f8c c93c dc6b c7bb 583f 06bd
00000040: c970 d93a 57da afbb f4ed 25bd 1937 0cbd
00000050: 30b3 9cbd 547b 47bb 11f9 f7bc c347 2dbd
00000060: 7e7e 8abd 8f3b 90bc 2062 73ba 6279 9d3b
00000070: 799f 19bd 571a 07bc 51be ce3c cc8c 5e3c
00000080: b0b1 43bd daba 83bc b5b8 e9bc df9a 113b
00000090: 653b 493d 8549 263d c863 d8bb 00da f1bc
000000a0: 71c6 0839 7d6d be3d 3693 97bd 022f b23d
000000b0: 6a9d 4bbd 564e 383c 27e7 36bd a4b2 c53b
000000c0: 2a45 5d3d f40b 61b8 f166 453d ff3c 843c
000000d0: f85b b7bc 70bc 82bd 74b2 c33c 01d5 c9bc
000000e0: 37bc 6dbd c32e e33c 6d68 85bd b643 ae3c
000000f0: bd30 e9bc b38d eb3c c022 553c f308 c53a
00000100: 2237 693c 02a2 5fbc 5264 ff3c 0ced a5bc
00000110: f573 023d f9b9 1bbd 2d43 cb3c 02e6 bfbd
00000120: 4b24 8b3c f96d 823d 1c9b 18bd 53a2 a83d
00000130: 6819 083d 1af2 5abb 7a9f 2bbc bfea 09bd
00000140: 0c51 043d f6d7 803d e30c 0fbd dad9 b83d
00000150: 36ad babc 0807 083c 1eab 113d 64f0 8dbc
00000160: 0c14 19bd b4eb 763d 3b69 a5bd 2bf4 803d
00000170: 6e2e 523d 568d 243d 745f 06bd 3bf3 e43c
00000180: 2366 debb c547 0d3c 087c dabc f318 063b
00000190: 553b 98bd 4da1 f6bc 9f52 f2bc 6711 82bd
000001a0: 82ac 14bd 68fb b13c 3f6f 11bd 2748 c33c
000001b0: 4ec8 613d 18d4 fd3b 84c4 b33c de89 8ebc
000001c0: ce2d 953a f1a8 b13b 6a6c d4bc aaa7 9c3c
000001d0: 2543 4abc e7c4 0fbc b9cc 043d 8e42 27bc
000001e0: 3862 90bb 5122 ec3d 7702 01be a650 ae3d
000001f0: e006 f3bb 68f9 a03d 6034 9cbd f579 223d
00000200: 7c6a 29bb 90c1 d2bc f3f2 1f3d 005d 22bc
00000210: 0df1 273d ef46 e63c 9d19 7bba 4595 823c
00000220: 85ea 33bd f02d 573c bb6f 1abc 4d27 603d
00000230: eb8b eb3c fca3 10bd 4d92 a4bc 5cb8 0ebd
00000240: 99de 453d 74c5 17bb 4d96 633c 4e0c e8bb
00000250: d583 bc3c ffe6 613d 0949 29bd 91c7 ad3d
00000260: 5621 453d b811 eebc 185b f53c 4334 c5bd
00000270: ab6b 55bc ac6a 62bd 3fee 963d 69b8 7abd
00000280: ad15 3c3d 168d 7cbc 57cf 133d 0778 16bc
00000290: f0c7 893c 4f2e af3d d0f3 2cbd 320e 7d3d
000002a0: 9834 c13c 65b0 c73c 5487 023c 95d3 823b
000002b0: 83ce c63c e448 8b3c 6eed 96bc 98f8 293d
000002c0: 2223 19bd 1bf7 a53c da1f 6cbd f7ce 1c3d
000002d0: 186b a1bd eaa4 16bd b2cd 65bc 8cf3 1fbb
000002e0: a7c0 37bd 6c78 c0bc e39d f0bb e5f8 52bc
000002f0: 8910 00bd ffb6 1c3d 7cd0 8abd 9fc5 343d
00000300: f740 43bd 3429 8bbc feb7 31bb f376 dc3b
00000310: 2cfa 873b 3219 c2bc 29a5 033d 539a 1bbd
00000320: 3e6b 14bb fc58 e4bc 040c 18bd 146b cabc
00000330: 273e 903c 9300 a63c c1f7 383c 38da 663b
00000340: e798 a8bb 478e 2fbc 1b66 a9bd 6daf 29bd
00000350: 30ff ae3c 5755 32ba cebb 7abc f9b5 55bd
00000360: 8d82 523d c43a 233c 1ed0 933b 90c7 01bd
00000370: 3f29 f83c 4db1 053c c838 133c f227 0ebc
00000380: 8e71 1f3c 4290 a4bd 7ef1 483d afd3 8dbd
00000390: 9a73 17bd c488 3c3a 4d4f 6cbd d938 f63c
000003a0: d804 24bc 93f8 e23b f97b 0ebd f921 88bb
000003b0: 0478 c23d 7c3e 273d 2734 433d f7fd 8fbc
000003c0: cd83 00bd 556b 983d 4c2e 5dbd fb7d a53d
000003d0: b054 0d3d b46f c3bc 70bd 983d a0c8 893c
000003e0: bf22 0bbd e5c9 903d a416 cebd 599e a03d
000003f0: ccda 22bd 3245 4cb8 b023 fbbb 790e d83c
0.06050739 -0.012609466 0.072943226 0.013272158 -0.07512549 -0.02091501 -0.006847353 -0.0037936915
0.0730302 0.017423859 0.03927764 -0.013171358 0.0072752847 0.024603067 -0.006085856 -0.032775253
0.0016589399 -0.0053666043 -0.040510133 -0.034232233 -0.07651365 -0.00304385 -0.030270131 -0.042304765
-0.06762408 -0.017606525 -0.0009284336 0.0048057297 -0.0375056 -0.008246026 0.025237234 0.013583373
-0.047776878 -0.016080309 -0.028530458 0.0022217555 0.04912891 0.040597457 -0.0066036917 -0.029522896
0.00013043896 0.09298227 -0.07401125 0.08700372 -0.04971067 0.0112491455 -0.044654038 0.0060332585
0.054021038 -5.3655313e-05 0.048193876 0.016142366 -0.022382721 -0.06383598 0.023888804 -0.024637701
-0.058040824 0.027732259 -0.06514058 0.021272521 -0.028465623 0.02875409 0.013008773 0.0015032574
0.014234336 -0.0136494655 0.031175766 -0.020254634 0.031848866 -0.038019154 0.024812305 -0.093700424
0.01698508 0.06368632 -0.0372573 0.08234086 0.033227354 -0.0033408464 -0.010475034 -0.033671137
0.032303855 0.06291191 -0.0349244 0.09025927 -0.022787672 0.008302458 0.03556358 -0.017326541
-0.037372634 0.060283378 -0.08076712 0.06296571 0.05131381 0.04017385 -0.032805875 0.027948013
-0.006787078 0.008623068 -0.02667047 0.0020461648 -0.07433192 -0.030106211 -0.029580412 -0.063509755
-0.03629733 0.021726325 -0.035506483 0.023838116 0.055122666 0.007746231 0.021944292 -0.017399725
0.0011381449 0.0054217507 -0.025930602 0.019122917 -0.01234511 -0.0087749725 0.0324218 -0.010208739
-0.00440624 0.11529983 -0.12598597 0.08511476 -0.007416591 0.078600705 -0.07627177 0.03966709
-0.0025850823 -0.025727063 0.039050054 -0.009909868 0.04100137 0.028109996 -0.0009578707 0.015940318
-0.043924827 0.013133511 -0.009426053 0.05472498 0.028753242 -0.035312638 -0.020089293 -0.034843788
0.04830799 -0.0023158463 0.013890815 -0.007081545 0.023012081 0.055151936 -0.041329417 0.0848533
0.048127495 -0.029061183 0.029950663 -0.09629109 -0.013026158 -0.05527751 0.073696606 -0.061211023
0.04591911 -0.015414497 0.036086407 -0.00918389 0.01681897 0.085537545 -0.042224705 0.061781116
0.023584649 0.024376104 0.007966835 0.0039925077 0.024268394 0.01700253 -0.018423762 0.041496843
-0.03738702 0.02025943 -0.057647564 0.038283315 -0.07881755 -0.036778368 -0.014026092 -0.002440664
-0.044861462 -0.023494922 -0.0073430403 -0.012876724 -0.03126577 0.038260456 -0.067780465 0.04413378
-0.047669377 -0.01698742 -0.0027117725 0.006728047 0.004149696 -0.023693655 0.03213993 -0.037988972
-0.002264693 -0.027874462 -0.037120834 -0.024709262 0.017607762 0.020263946 0.011289538 0.0035225283
-0.0051451805 -0.010715074 -0.08271428 -0.041427065 0.021361917 -0.0006802878 -0.015303565 -0.052175496
0.051394034 0.009962741 0.0045108935 -0.03168446 0.030293105 0.008159948 0.008985706 -0.008676516
0.009731663 -0.080353275 0.04905843 -0.06925141 -0.03697548 0.00071920105 -0.057692815 0.030056404
-0.01001092 0.006926605 -0.0347862 -0.0041544405 0.094955474 0.040831074 0.04765716 -0.017577155
-0.031375695 0.07442347 -0.05399923 0.080806695 0.034504592 -0.023856975 0.07458007 0.016819298
-0.033968683 0.07069758 -0.10062912 0.078427024 -0.039759442 -4.8701833e-05 -0.0076641664 0.026374089

base_model.model.bert.encoder.layer.10.attention.self.query.lora_A.weight f4 [4, 768]
00000000: cff5 703c c891 4a3d b30a cd3d 0b0f 8cbc
00000010: 943d b9bc 0651 c73c 557f 863b 90da 0cbd
00000020: 40ed 2b3d 3a6a 1fbd 8662 8e3c e2dd 6dbd
00000030: 8ced 213d 40ca 0a3a 2fc2 c4bb 1814 dc3b
00000040: c1e2 d73c c5ce b33b e489 d5bc 2bc6 09bd
00000050: b95d 483d c8d1 79bd f0c0 173d 2014 413d
00000060: a849 4b3d 2c9e e53b 0a1f 393b 2e15 c23c
00000070: 0e10 1cbb aca1 3c3c a43b 51bc c545 d8bb
00000080: f9db 513c 1f3d 913d 9ee5 0dbd bba2 36bd
00000090: fd2d 6d3c 7429 60bd e4c2 023c 4ec3 d13c
000000a0: b420 babc a16d 3b3c 081c 95bb 58cc 2c3d
000000b0: 21de 2c3c a276 4e3d 8f7e 4b3d ec0e 91bc
000000c0: 26d3 2d3c 5666 6d3c 23d3 90bc 9009 453d
000000d0: 52cb c93b fbab 0cbc 179c 7ebd e0f6 74bc
000000e0: 4620 82bd bba1 d2bc 307e ec3c daf6 84bc
000000f0: 501e 423d 8df7 65bd 9328 4f3c 5b14 4bbd
00000100: 63fb 48ba 08da b93d 5c9b 28bd 37b7 b83c
00000110: a894 343d 0678 853c 1c3b 853c b195 d23c
00000120: 4086 4a3d 8f12 833d 2dec 33bd a0bb 453d
00000130: 65bc b13b 8b00 15bd 5085 753d d851 1b3d
00000140: acd8 cc3c b45d bdbc 84df 11bd c85e babd
00000150: 7451 aabc be8c 44bd e867 9a3d 9faa 853c
00000160: dcd2 2c3b ae2b c8bc e348 803c c680 03bd
00000170: 4ee2 f73c 4c87 12bd 49b5 4fbd 5cc3 f8bc
00000180: 59f8 363d f9a5 c7bc cd59 8ebc 9c4d 39bd
00000190: 293d 31bc 1f81 efbc 07e1 0a3c 3a4d f23c
000001a0: a6ca 4abd 76c9 92bd 4459 aa3d 1126 313c
000001b0: aa13 273c d0c4 efbc 6af3 61bc 2136 54bd
000001c0: 4338 64bd 8bfc cabc 4a8e 373d cce5 2a3c
000001d0: c47b 363d c98e 04bd 4ecd 1c3c e97b dcbc
000001e0: cf49 0cbd 153d 243d 0625 5bbd 594a 033d
000001f0: fe00 243d bb43 d4bb db0f bfbc 2afa 953c
00000200: f837 e1bc dd08 fbbb 72cf 153d a94e 4cbd
00000210: ba0c cbbc d773 a53d 0c6f dabc 147e 2ebc
00000220: ef57 a2bc 339e d8bc bbbc 163d adf8 313d
00000230: ef0c 743d a226 943d 2d6e 4f3d 076c 50bc
00000240: ff3c 5cbb ef37 84bd 9491 1e3d 8c2a f63c
00000250: 3233 3cbb f659 1abd e1ab fd3c fe8c 36bd
00000260: b19f 91bc c701 b93c 22cc 233d c0c2 efbc
00000270: e659 0e3d 2794 893d f655 10bd b4b5 72bb
00000280: d30e 64bc 9d7a 8ebc d4c0 2d3c 8de5 ce3c
00000290: 1ed1 353c 27d9 8ebd d1d2 d4bd dc7c ffbc
000002a0: b0df 133c 967d 09bd ac48 1f3d e4a6 69bd
000002b0: 29ef 07bd 1d1b 2e3c 7035 7fbd 159a 5dbb
000002c0: 5332 0dbc 3de9 f8bc 316a 31bd ef72 2bbc
000002d0: f9f6 033d aa47 8abd 7a89 05bd b150 a1bb
000002e0: 2118 5bbb 62f0 833b 1fc8 46bc 0da0 2f3d
000002f0: 4e91 95bc d025 b7bc 8838 3dbd 88ae 103d
00000300: 1f2f 883b b31e b4bb 676d 3bbc c24b 30bd
00000310: 3f55 d6bb 7bdb cd3c 51eb 9bba 0332 3d3d
00000320: d409 8e3b 5a69 74bc 8730 88bc 876f 13bd
00000330: a012 6aba c1e2 52bb ee94 213d 134c 413d
00000340: 28c4 ca3d 0f5f 68bc 5dcc 033b 8530 0abd
00000350: 2ef6 163d 531a c9bc 790a 8fbc 421a 89bd
00000360: 81f4 f2bc 784f 3a3d 4c33 ab3c 4a66 4c3d
00000370: 1393 433c 4c0a 38bd cc49 c73c 7b33 5bbc
00000380: ffe6 a43c e048 b5bc 0b23 1c3d 6013 543c
00000390: 77a3 8fbc 6cf7 0e3d 3eb1 d4bc 2502 dcbc
000003a0: bae5 06bd 52f0 06bd 6863 863b da1f 343c
000003b0: 05b2 12bd 8ce1 c63c f901 f4bb d4e8 f03c
000003c0: b2eb 5e3d 0153 dcbc 8792 8dbc 41c6 3d3d
000003d0: 1927 10bc 1ade 95bd 3c45 a9bd 4d68 123d
000003e0: 59a2 10bd 8192 543d a778 9bbc ae98 4dbd
000003f0: d0dc 913d b453 4e3d 0ab5 6e3d dd47 57bc
0.014707043 0.049455434 0.10011806 -0.017097017 -0.02261237 0.024330627 0.0041045346 -0.034388125
0.041974306 -0.038919665 0.017380964 -0.058072932 0.039533183 0.000529442 -0.006004594 0.0067162625
0.026353242 0.0054872953 -0.026066728 -0.033636253 0.048917506 -0.06099108 0.037049234 0.047138333
0.04963079 0.007007381 0.002824726 0.02369174 -0.002381328 0.011513155 -0.012770567 -0.006600114
0.012808793 0.07091736 -0.03464281 -0.044588786 0.0144762965 -0.054727033 0.007981036 0.025605824
-0.022720672 0.011439712 -0.0045504607 0.042187065 0.0105510065 0.050406106 0.049681243 -0.01770731
0.010609424 0.014489731 -0.017678803 0.048104823 0.006158271 -0.008585925 -0.062160578 -0.014951438
-0.06353812 -0.025711885 0.028868765 -0.01623099 0.04739219 -0.056144286 0.012643951 -0.04957996
-0.0007666854 0.09074789 -0.041163787 0.022548301 0.044087082 0.016292583 0.016263537 0.025706144
0.049444437 0.06400024 -0.043926407 0.048274636 0.0054240697 -0.03637747 0.05994159 0.03791985
0.025005661 -0.02311597 -0.03561355 -0.09100109 -0.020790793 -0.047985785 0.0753935 0.01631671
0.00263708 -0.02443489 0.015659755 -0.03210523 0.030259278 -0.03577356 -0.050709996 -0.030366592
0.044670437 -0.024371134 -0.017376805 -0.04524003 -0.010817804 -0.029236374 0.008476502 0.02957784
-0.049509667 -0.07167332 0.08317807 0.010812298 0.010197559 -0.029268652 -0.013790945 -0.051809434
-0.055717718 -0.024778625 0.04481343 0.010430764 0.044551626 -0.032362733 0.009570433 -0.026914554
-0.034250077 0.040097315 -0.053502105 0.032053325 0.04004001 -0.0064778007 -0.02332299 0.018307764
-0.027492508 -0.0076609687 0.03657479 -0.049879704 -0.024786342 0.08078735 -0.02666428 -0.010650177
-0.01981732 -0.026442623 0.03680108 0.043450046 0.059582647 0.07233931 0.05064218 -0.012721068
-0.0033605692 -0.06455981 0.038713053 0.030049585 -0.0028717038 -0.03768345 0.030965747 -0.044568054
-0.017776342 0.022583855 0.039989598 -0.029267669 0.034753703 0.06717711 -0.03523823 -0.0037034573
-0.01391955 -0.017392451 0.010605056 0.025255943 0.011097221 -0.06975012 -0.103917725 -0.031187467
0.009025499 -0.033567034 0.038887665 -0.057043925 -0.033187065 0.0106265815 -0.06230682 -0.0033813764
-0.008617955 -0.030384654 -0.043314163 -0.010464414 0.032217953 -0.0675195 -0.03260181 -0.0049229492
-0.003343113 0.0040264586 -0.0121326735 0.042877246 -0.018257763 -0.022356898 -0.04619649 0.035322696
0.004156008 -0.0054968237 -0.011439658 -0.043041 -0.006540924 0.02512907 -0.0011895691 0.046190273
0.0043346677 -0.014917696 -0.016624702 -0.035995033 -0.0008929167 -0.0032178613 0.03944867 0.04719169
0.09900695 -0.01418282 0.0020110824 -0.033737678 0.03685587 -0.024548685 -0.017461048 -0.066944614
-0.029657604 0.045485944 0.020898484 0.049902238 0.011936921 -0.044931695 0.024327181 -0.013378973
0.020129679 -0.022129476 0.038119357 0.0129440725 -0.017534 0.03490393 -0.025963422 -0.026856491
-0.032933928 -0.03294403 0.0041012056 0.010993922 -0.035814304 0.024277471 -0.007446524 0.029407896
0.054423995 -0.026895048 -0.017281784 0.046331648 -0.008798384 -0.07317753 -0.082651585 0.035744
-0.035311077 0.05189753 -0.01897843 -0.050194435 0.07122195 0.050372794 0.05827812 -0.013139692

base_model.model.bert.encoder.layer.10.attention.self.query.lora_B.weight f4 [768, 4]
00000000: cd8f bbbc 9148 9dbd fd01 4e3d 7572 5bbc
00000010: a94f c3bb 30a9 5ebc e78d a43a ffe4 a0bb
00000020: 8ca9 0f3d aa04 023d 0a01 47bd def7 35bc
00000030: 3bd9 863c db77 b03c b43b a2bd 4b75 013d
00000040: 1264 0d3d 3da4 213d 52a8 42bc c14b d0bc
00000050: eef3 53bd 93cd 1cbd f65e 253d 49d3 113d
00000060: c1d7 493c 744e 2e3d 8a8c 93bc 0420 a6bc
00000070: 5ac5 4e3b 5ecb 873d ab32 31bc 01f0 59bc
00000080: bd99 36bd 639c c8bb fa87 263c 774d 263d
00000090: 0325 8a3d decc 933d 80f3 5dbd 1bd7 313d
000000a0: c96f 8b3c f34e dcbc 52f6 7ebc 6a9c debd
000000b0: 5b38 42bb 7a5d 483c c12c f6ba d745 81bc
000000c0: e7e0 15bd 574c 93bc 9228 053d 1de6 853c
000000d0: 378c 933c 3c0c b63c 1fa7 8f3c 7bf5 e7bc
000000e0: 5e55 6cbd 1629 99bc 8a0d f93c 940d b73d
000000f0: 2f15 b63c 3385 013c 5e39 43ba 10a6 44bd
00000100: ce8c 0f3d 9f15 0eba 922d 1fbd 10ef 76bd
00000110: c026 f63b 4cc8 923d ae3e abbb 2a20 bbbc
00000120: 46de d93c aff5 183d f6b9 363a 1680 69bd
00000130: 5263 4ebc 0a7c a0bd dab5 ae3c f0e6 303c
00000140: fa2e 0ebd 7532 46bc b9d1 113d 9980 4abb
00000150: 9c1c 853c c4cf c93c fba3 81bd e930 203c
00000160: 8d17 87bc 001e 99bb 523a 9c3b c639 213d
00000170: 80ec a9bb 12a2 de3c e725 0a3d 435c 39bc
00000180: 73cc 963d 9ddf 98bc 0e4e 9fbd 7024 6fbd
00000190: cadb 9b3d cef3 3c3d d097 94bd ecf8 3bbd
000001a0: 40b0 d6bc a228 33bd 3cd6 983d 5579 a13c
000001b0: f68d 9d3c 2a42 3b3d 3ff8 e2bc 7b66 8b3c
000001c0: 9917 82bc 3c1f 1fbd 429b 843d 459d 9d3d
000001d0: 81d9 873d 0916 5d3d fe62 65bd ab94 bebc
000001e0: c801 e13c 9a20 b83c d803 4abd 374e f2bc
000001f0: d37c a8bc e46d 863c b11d a63c 2cef 03bc
00000200: e77f 20bc 88de cebb 5db7 613c 5b8a 1cbd
00000210: e8a4 23ba addf 56bc 2c20 40b9 2e7d 603b
00000220: cbd5 873c 151d 8dbc 582f 58bc 93b9 ed3c
00000230: b6b1 403d 5f04 f63c eaa2 3ebd 8e6b c9ba
00000240: f9a2 843d d92c 113c f8af 27bd a21a 68bd
00000250: 9332 033d ebfd 423c a2db 14bd 2b8f c6bb
00000260: 3a6f e6ba 0762 03bb bad7 99bb f229 b8bd
00000270: 1465 24bc c073 523b c56b b03c 303b 023a
00000280: 2193 9dbc 67f4 7fbb 8c31 ef3c c722 f33c
00000290: 8325 86bb 683e ab3c e7aa 7a3b 543a 62bc
000002a0: 5e73 223b 6d01 0abd 52cf 9b3c cd69 313c
000002b0: 9343 b33d 8586 893a 678e b9bd 9ff9 54bd
000002c0: ca00 50b9 9dfa b0bd 3b17 873c b47e 2c3c
000002d0: f217 303b a7eb b5bc 6c7e ebbb 118b a0bd
000002e0: 365d cfbc ebc3 3dbc 4339 0b3d 9c81 37bb
000002f0: f964 1e3c 8022 7c3c e8a1 97bc a808 09bd
00000300: dc3a 68bd aab9 4abc fe56 873d 8ab8 853d
00000310: d4a3 e9bb 98ad 29bd be6f ee3b 416e 5d3c
00000320: 1e6f 2d3d 89af 76bc 3e13 8b3c 6ae0 69bb
00000330: a947 adbd 3068 babd 680f 953d 882c 113d
00000340: 8f16 97bc eb31 35bc cad2 073d 4f98 333d
00000350: 5644 4dbd 43d7 7dbd 2d25 91bc 5374 93bb
00000360: 8940 16bc f00e 963c 8f06 b0bb 4d90 0ebd
00000370: 73d0 7abd 2940 9abd 3c67 593d 06da 8f3c
00000380: 1c21 52bb ac0b 2abd f36f 793c e89d f03c
00000390: dae0 953a 3a83 5abb 7a5b fabc 7a6b 61bd
000003a0: 86a1 ccbc 7664 84bc b6fe 843c db4c d7bc
000003b0: a853 303d 218e 433d 77a4 a3bd 002c 57bc
000003c0: 5888 463c 462f e2bb 0691 62bc 86aa 013c
000003d0: 4544 8abc f084 c3bb c014 173c f64e e23c
000003e0: de89 1fbc ffdf 0e3d 16d0 c0bc 4f59 1b3c
000003f0: 61a1 513c b6ee 543d f6db bcbc 47bc 8dbc
-0.022895718 -0.076798566 0.050294865 -0.013393988 -0.005960424 -0.013590142 0.0012554497 -0.004910111
0.035073802 0.03174273 -0.048584975 -0.011106459 0.016461005 0.021541527 -0.07921544 0.031606
0.034519263 0.03946327 -0.011880951 -0.025426747 -0.0517463 -0.03828199 0.040373765 0.035601888
0.012319506 0.042555287 -0.01801135 -0.020278938 0.0031550736 0.06630586 -0.010815303 -0.01330185
-0.04458021 -0.0061221584 0.010164255 0.04060122 0.06745341 0.0721681 -0.054187298 0.04341803
0.017021077 -0.026893115 -0.015561657 -0.10869677 -0.0029635641 0.012229318 -0.0018781648 -0.015780373
-0.036591437 -0.017980738 0.032509394 0.016345078 0.018011196 0.02222263 0.017535744 -0.028315296
-0.0576986 -0.01869635 0.030401964 0.08938137 0.022226898 0.007905292 -0.0007447208 -0.048009932
0.03504639 -0.0005420092 -0.03886182 -0.06028658 0.0075119436 0.0716711 -0.005225978 -0.022842485
0.026595246 0.037343677 0.00069704594 -0.057006918 -0.012596922 -0.078361586 0.021326948 0.010797247
-0.03471277 -0.012096991 0.035600398 -0.0030899404 0.016248994 0.024635203 -0.06330105 0.009777286
-0.016490722 -0.0046727657 0.0047676945 0.039361738 -0.0051856637 0.02717689 0.033727553 -0.011313501
0.07363214 -0.018661315 -0.077785596 -0.05838436 0.07610281 0.046130948 -0.072555184 -0.045891687
-0.02620709 -0.043739922 0.07462737 0.019711176 0.019232731 0.045717396 -0.027706264 0.01701664
-0.015880393 -0.038848147 0.064749256 0.076960124 0.066332825 0.053976092 -0.05600261 -0.02326425
0.02746667 0.022476483 -0.049320072 -0.029578311 -0.020567333 0.016409822 0.02027783 -0.0080526285
-0.009796119 -0.006313149 0.013776627 -0.038217884 -0.00062425295 -0.013114852 -0.00018322532 0.00342543
0.016581437 -0.017225781 -0.013194881 0.029019153 0.04704448 0.030031381 -0.046542086 -0.0015367137
0.06476397 0.00886079 -0.0409393 -0.056666024 0.032030653 0.011901359 -0.03634227 -0.0060595474
-0.0017580756 -0.0020047443 -0.004694906 -0.089923754 -0.0100338645 0.003211245 0.021535764 0.0004967926
-0.019235196 -0.0039055587 0.02919843 0.029679669 -0.004093827 0.020903781 0.0038248838 -0.013807852
0.0024788002 -0.033692766 0.019019756 0.0108284475 0.08753123 0.001049236 -0.09060364 -0.05199587
-0.0001983672 -0.08641551 0.01649057 0.010528255 0.0026869741 -0.022207094 -0.0071867015 -0.07839025
-0.025313001 -0.011582355 0.033990156 -0.0028000837 0.009667628 0.015389085 -0.01850982 -0.03345552
-0.056696758 -0.012373367 0.06608389 0.06529339 -0.0071301255 -0.041425318 0.0072765043 0.013515056
0.042342298 -0.015056499 0.016976949 -0.003568674 -0.08460934 -0.091019034 0.07278329 0.03544286
-0.018443374 -0.011059265 0.03316001 0.043846425 -0.050114 -0.061972868 -0.017717922 -0.004499951
-0.00917066 0.01831767 -0.0053718756 -0.034805585 -0.06123395 -0.07531769 0.053076968 0.017560016
-0.0032063192 -0.041515037 0.015224445 0.02937217 0.0011434809 -0.0033342377 -0.030561198 -0.05503414
-0.024979364 -0.016161185 0.016234737 -0.026281765 0.04304853 0.047742967 -0.079903536 -0.013133049
0.012117468 -0.006902608 -0.013828522 0.007914191 -0.016878257 -0.005966775 0.009221256 0.027625542
-0.00973746 0.034881588 -0.023536723 0.009481742 0.012794823 0.051985465 -0.023054104 -0.017301692

base_model.model.bert.encoder.layer.11.attention.self.query.lora_A.weight f4 [4, 768]
00000000: ec58 7cbc b831 04bd a013 323d 9308 01bd
00000010: e397 c63c 96df 1ebc 470f acbd dce6 8dbd
00000020: aff2 04bd 8f5f 46bd 8996 763d 6ab4 a4bd
00000030: 2fc3 f8bc 0203 02bc 0975 2fbd beb2 d8bc
00000040: 821b f7bc 39e5 34bc bc35 6e3d 14cf f83c
00000050: 3d52 973c ae12 c5bc 6629 5c3c 482f 2e3d
00000060: fcb2 9838 ff07 bdbc 55b4 bfbd 7e7b 9abc
00000070: ab27 2bbd eda1 b43d e8bc 2dbd 0d32 533d
00000080: 2021 3abc b835 30bd 8648 a53c 01b8 543c
00000090: 0cc6 6a3c 87d2 913b e8fd 97bd 1b34 5b3d
000000a0: 604f e13c ae6e febc c623 21bd 4755 9cbc
000000b0: c243 043c 5bbe 743d 1df7 02bd 6210 083a
000000c0: a4ff f6bc 7381 6cbd 4f23 2b3d 9459 203c
000000d0: 49b0 43bd ace9 623d ab7b bebc 1d58 703c
000000e0: 8825 00bd 91f7 79bc 7712 13bd f0a6 eb3c
000000f0: d6c8 cd3c 4d93 163d e8ae 693b b4f2 32bc
00000100: c487 2dbd 7a89 48bc 7ca5 f3b9 8354 1fbd
00000110: 4fbc 3abd 012d 313d 8cb2 71bc 7947 e73a
00000120: 7ef5 f0bb c090 463b 53d6 3d3d e122 313d
00000130: 0bc1 1fbd 0385 16bb 226b c6bc 0a83 49bd
00000140: 52fb 143d 138e eb3c 3480 5b3d cc89 abbc
00000150: 045e 27bd eed7 733d 0e5f abbc 273c 273d
00000160: 6326 6e3c 8259 9a3d 8783 5bbd 9643 103d
00000170: 0285 bebc 4c03 23bd c065 92bd ce37 753c
00000180: b97f b33c 9a42 c73d d65f 21bb 6af0 803d
00000190: 5eca 813d 6591 68bc f4d6 4f3c 9c2d 22bd
000001a0: 094c d83c 4126 12bd d189 ee3c 65ef 843b
000001b0: a964 d1bc 863c d9bc 7229 903b c9e1 573c
000001c0: 2729 173d f658 7fbd 8caa 903d 4d2c 05bd
000001d0: 6e2b 853b b2bf 24bd 3043 9fbc d3a5 95bc
000001e0: 5026 4ebd 69a2 67bc 6f5d a63c 511e 2bbd
000001f0: dd33 be3c 63b5 1b3c 18ba 033c 60c0 92bd
00000200: 6855 623d 84f0 193d 71d7 123c 4867 d4bc
00000210: d8eb 07bc c4cc 623c a469 40bd 4e01 193d
00000220: 79f3 cbbb 8f86 48ba adea 10bd 72d2 0b3d
00000230: a902 dcbc 1ac1 d7bc f82d 8cbd 6a24 383d
00000240: b7dc d23c 4525 c0bb 1855 f93c bdd6 d83d
00000250: cdb5 a03c 1ea8 ebbc 664f 13bc dcb0 38bd
00000260: b0a0 9db9 8d53 653c 7055 04bb ea10 0a3d
00000270: 70f0 08bd 22bb 6b3c cea8 0cbd 3a7b ff3b
00000280: f542 2abd f933 d1ba 4732 20bd 6adb 60bd
00000290: 29b6 193c 4fcc 84bc 5193 94bd 17f6 9ebc
000002a0: 2848 4b3d 402a b93c 4f3a 583d 26b7 70bd
000002b0: 180e 7e3d c2b9 543d c1ec 8abc 9e27 613d
000002c0: e194 22bd 534a 76bc 5e8a 0b3d 9c8c 953d
000002d0: bd70 c1bc 652e b5bb fe72 183d d3b8 343d
000002e0: 8060 8c3b 68d0 70bc 067d 343c 362e 92bd
000002f0: c26a 33bd cbac 803d a9a6 9abc 1d02 85bc
00000300: 4cb8 40bb d446 9ebc 8ff5 983c ec4c 043d
00000310: 6e9c f1b8 76aa 10bd 1b46 173d 1d68 02bd
00000320: 7466 81bd 5976 d43c a7ea 9f3d 58b4 0d3d
00000330: f262 11bc 23c7 223c ca74 32b9 e968 92bd
00000340: a3cf 8dbc 891b c03c 63f5 0b3d 1e92 a6bc
00000350: 8d61 7abd 9af6 1ebc 9617 183c cab4 2f3d
00000360: 1f32 ac3d 1664 34bd 9675 45bd 1dd6 15bd
00000370: a820 c6bc e0ef 5c3d 1043 95bd 9b2e 0dbd
00000380: 9237 33bd 82c8 913d ff11 bb3c 0004 133c
00000390: 562e c93c 4bf9 1dbd a801 fa3c 90eb a8bb
000003a0: 6ab5 67bd 77c7 99bc 4aa0 a6bc 184e 1c3c
000003b0: 2461 23bd 1f3e 013d 3578 04bd 3131 16bc
000003c0: 8bef 4e3c ef74 4f3d 7d0b b73b b89e 323d
000003d0: 134a b4bc a5cb 693c 91b8 073d 1d22 24bd
000003e0: 0019 4e3d 157c eabb 1154 7dbc 6758 6d3d
000003f0: 0d1a 08bd 585c 223c 07b2 81bc 518b b93d
-0.01540206 -0.032273978 0.043475747 -0.031502318 0.024242347 -0.009696862 -0.084013514 -0.069287986
-0.032458004 -0.048430976 0.060202155 -0.08042224 -0.030366508 -0.007935287 -0.042836223 -0.026452418
-0.030164484 -0.011040979 0.058156714 0.03037218 0.018471831 -0.024056759 0.0134376045 0.04252556
7.281263e-05 -0.023075102 -0.093605675 -0.018857714 -0.041785877 0.088199474 -0.042416483 0.051561404
-0.011360437 -0.04301998 0.020176183 0.012983323 0.014329445 0.0044501456 -0.07421476 0.05351649
0.02750367 -0.031058636 -0.039340757 -0.019083632 0.008072795 0.05975185 -0.031973947 0.00051904295
-0.030151196 -0.05774064 0.04178172 0.009786982 -0.04777554 0.055398628 -0.023252329 0.014669445
-0.031285793 -0.015256778 -0.03590628 0.028766125 0.02512018 0.03676157 0.003565723 -0.010922123
-0.042365804 -0.012239808 -0.00046471867 -0.038898956 -0.04558974 0.04325581 -0.014752042 0.0017645202
-0.0073534837 0.003029868 0.046346974 0.043246154 -0.03900246 -0.0022967465 -0.024221007 -0.049197234
0.03637249 0.02875427 0.05358906 -0.02093973 -0.040861145 0.0595321 -0.020919349 0.04082885
0.014535519 0.075366035 -0.05359223 0.035220705 -0.023256782 -0.039798066 -0.071483135 0.014966918
0.021911489 0.097295 -0.0024623773 0.06295855 0.063374266 -0.014194821 0.012685526 -0.039594278
0.026403444 -0.035681013 0.02911845 0.0040568584 -0.025560694 -0.026518118 0.004399472 0.01317639
0.03690448 -0.0623407 0.07063779 -0.03251295 0.004064015 -0.040221877 -0.019441217 -0.018267548
-0.050329506 -0.014137843 0.020308224 -0.04177696 0.02321809 0.009503695 0.008039974 -0.07165599
0.05525723 0.03758289 0.008962498 -0.025928155 -0.008295976 0.013842765 -0.046975747 0.03735476
-0.0062240926 -0.00076494453 -0.035380054 0.034136243 -0.026856737 -0.026337195 -0.06844705 0.044956602
0.02574001 -0.005863818 0.030436084 0.10587833 0.01961794 -0.028766688 -0.008991098 -0.04509054
-0.00030065095 0.013996971 -0.0020192526 0.033707537 -0.033432424 0.014387878 -0.034340672 0.007796672
-0.04156776 -0.0015960924 -0.03911045 -0.05489675 0.009381809 -0.016210703 -0.07254661 -0.019404454
0.04962936 0.022603154 0.052789982 -0.058768414 0.06202516 0.051934965 -0.016958596 0.054969423
-0.039692763 -0.015032369 0.034067504 0.0730221 -0.023613328 -0.0055292123 0.03721904 0.044121575
0.0042839646 -0.014698125 0.011016136 -0.0713772 -0.043802984 0.06282958 -0.018878298 -0.01623636
-0.0029406724 -0.019320883 0.018671779 0.03229992 -0.00011520913 -0.035318814 0.036932092 -0.03183757
-0.063183695 0.025935339 0.07808428 0.034595817 -0.008873688 0.009935173 -0.0001701891 -0.07148916
-0.017310923 0.02345063 0.034169566 -0.020333346 -0.061128188 -0.009702349 0.009282967 0.042897023
0.08407997 -0.044040762 -0.04820784 -0.036581147 -0.024185494 0.0539397 -0.07288182 -0.034468275
-0.043754168 0.07118322 0.02283573 0.008973122 0.024558228 -0.038567822 0.030518368 -0.0051550344
-0.056569494 -0.01877187 -0.020340104 0.009540103 -0.039887562 0.031553384 -0.0323412 -0.009167002
0.012630354 0.050648626 0.0055860863 0.043608397 -0.022007978 0.014269744 0.033135 -0.040071595
0.05031681 -0.007155905 -0.0154619375 0.057945635 -0.03322797 0.009909712 -0.01583196 0.090597756
